keypoint_classifier.tflite (tflite, 58712 bytes, 8 tensors)

sequential/dense/BiasAdd/ReadVariableOp f4 [256]
000000 52 d6 0d 3e 31 3e b3 bd ba a2 8a be d8 3d f0 3c
       0.13851288 -0.087520964 -0.27077276 0.029326364
000010 a8 88 3b be 63 b4 ae bd e9 1a 22 3d 1c 84 4a be
       -0.18313849 -0.085305 0.039576445 -0.19776958
000020 b5 c2 d9 be fd e3 14 be f4 21 c0 be 8a c8 2c be
       -0.42531362 -0.14540096 -0.37525904 -0.16873375
000030 55 e9 0c be f4 74 cc 3d 58 32 8e be a1 07 68 bc
       -0.13760884 0.099832445 -0.27772784 -0.014161975
000040 90 61 96 be a2 e9 dd bd 90 a7 98 bd ad 80 76 be
       -0.2937131 -0.108355775 -0.07453835 -0.24072523
000050 64 76 aa be 9e 39 01 be 61 54 86 be dc ae a1 be
       -0.3329345 -0.12619635 -0.2623625 -0.3157872
000060 b2 81 4d bd 0f ca 89 be ce cc 62 be b6 b2 01 3c
       -0.050172515 -0.2691197 -0.2214844 0.007916143
000070 c9 00 88 be 34 ef d7 be 58 79 23 be 01 34 3c be
       -0.265631 -0.42174685 -0.15964258 -0.18379213
000080 0f 67 4a be d6 3a 89 bd 06 2a 4d be 0e 50 a2 3e
       -0.19765876 -0.06700675 -0.20035562 0.31701702
000090 74 11 c0 be 59 c0 a4 be 25 76 ac be 04 d1 3c be
       -0.37513316 -0.32178 -0.33683887 -0.18439108
0000a0 29 5e 0f bf f2 a0 a3 be 28 8e cc be 1d c9 6b bd
       -0.5600305 -0.3195873 -0.39952207 -0.057564843
0000b0 41 a0 32 be 68 43 72 be 5d 57 ba be b7 eb ff bd
       -0.17443945 -0.23658526 -0.36394778 -0.12496131
0000c0 ed 3d c0 bd c9 ca ac 3c 93 f1 97 bd 12 28 16 bf
       -0.093868114 0.02109279 -0.074191235 -0.5865489
0000d0 40 8b 88 be 41 a5 c5 bd 06 bc 3b be c5 0d 2d be
       -0.2666874 -0.0965066 -0.18333444 -0.16899784
0000e0 ce f1 84 be 0b 9f 4c 3d 77 c5 8c be 53 33 0e be
       -0.25965732 0.049956363 -0.27494404 -0.13886766
0000f0 76 28 7d be 56 76 79 be cf ab f1 3d d3 78 af bd
       -0.24722466 -0.24361548 0.11800348 -0.08567967
000100 e7 ac 9c be 7b e2 8e be 97 1d 91 be bd 5d 2b be
       -0.30600664 -0.27907166 -0.28342888 -0.16734977
000110 6e 34 58 be dd cf 2d be 3d 70 95 be 18 62 b6 be
       -0.2111375 -0.16973825 -0.29187194 -0.35621715
000120 3d 32 59 be 7a c8 5c be 3f 92 70 be 7b 28 5d be
       -0.2121057 -0.2156085 -0.23493288 -0.21597473
000130 6b 6b 31 3e 23 8f 09 be d2 e1 9f be 54 d0 2c be
       0.17326133 -0.13433509 -0.31226975 -0.16876346
000140 18 1c 7d be ab ad c5 bd 7b 9b 21 be 24 0d e0 be
       -0.24717748 -0.09652265 -0.15781967 -0.43760026
000150 d6 f1 68 be dd 5b f6 bd c7 62 a2 be f7 51 7d bd
       -0.22748503 -0.1202924 -0.31715986 -0.061845746
000160 4d cd 81 bd f3 11 8a be 66 64 3d be 3e 9f 9a be
       -0.06337986 -0.2696682 -0.1849533 -0.30199617
000170 1f 5a 02 bf 9c 5b 57 3e f6 f8 07 3e 61 95 4c be
       -0.50918764 0.2103104 0.13278565 -0.19978859
000180 b3 9b e7 be aa b8 96 be 0c dc 3c be 14 df 51 be
       -0.45235977 -0.29437762 -0.18443316 -0.20495254
000190 43 f5 5f be e5 94 06 be 25 31 14 3e dc 0a 18 3e
       -0.21870904 -0.13142736 0.14471872 0.14847893
0001a0 49 33 21 be c5 17 7a be f4 3f ba 3c a5 97 c1 be
       -0.1574222 -0.2442313 0.022735573 -0.37811008
0001b0 56 2b b5 bd 13 17 3b bc 2d 10 02 bf 6a 8d 59 be
       -0.08846156 -0.011419076 -0.5080593 -0.21245351
0001c0 41 6a bf bd d0 98 34 be 01 25 43 be f5 f6 a7 be
       -0.09346438 -0.17636418 -0.19057085 -0.328056
0001d0 4d 07 c9 3e 4a 03 d6 be e5 0b 9d bd 43 62 29 be
       0.39263383 -0.41799384 -0.07668284 -0.1654139
0001e0 52 89 ed bd 12 0e 81 bc 30 dd 47 be de e3 fe be
       -0.115984574 -0.01575378 -0.1951797 -0.49783224
0001f0 58 b0 7f be 05 7c 88 be 9a d1 3b be e9 5c d6 bc
       -0.24969614 -0.2665712 -0.18341675 -0.02616735
000200 81 5a 62 be 4f d4 ad bd 8a bb 8b 3e ca de 01 be
       -0.22104837 -0.0848776 0.27291518 -0.12682644
000210 31 f7 45 be 18 85 29 be 27 b9 40 be e1 19 bc bd
       -0.19332577 -0.16554677 -0.1882063 -0.091846235
000220 94 c2 62 be 4f dc 3e be 76 6f 3d be ec 09 3e be
       -0.22144538 -0.18638729 -0.1849955 -0.18558472
000230 a2 3b 86 be 43 f4 9a be 6a 4d b4 be 08 a4 8e bd
       -0.2621737 -0.30264482 -0.35215312 -0.0696488
000240 0d 6d 27 be 96 4a 9b be 9f 72 85 be fa 37 ac bd
       -0.16350193 -0.30330342 -0.2606401 -0.08409114
000250 82 ef 0f 3c ff 42 43 be 17 fc 4c bd c2 b1 4c be
       0.00878513 -0.19068526 -0.0500451 -0.19989684
000260 e1 ad 0f bf 44 7f 1f be 1d 6a 5c bd 9c df eb bc
       -0.56124693 -0.15575892 -0.053812135 -0.028793149
000270 00 a0 b0 3d ee d2 d3 be cb 30 23 bf 86 50 97 be
       0.086242676 -0.41371864 -0.6374633 -0.29553622
000280 23 ba c3 be 3a 5e d3 bd 81 ce db 3c 13 89 dc be
       -0.3822795 -0.10320707 0.026831867 -0.4307333
000290 c9 bf 06 be 81 35 d8 bd 21 87 21 be 27 7e 17 be
       -0.13159098 -0.1055708 -0.15774204 -0.14794217
0002a0 ce 91 80 be 83 eb 94 be 6f 6c 6d 3d fa 61 9e be
       -0.2511124 -0.2908593 0.05796474 -0.30934125
0002b0 11 36 05 be eb bc a7 be 46 b1 aa be c2 b0 b4 bc
       -0.13008906 -0.3276132 -0.33338374 -0.022056941
0002c0 60 11 35 be d4 a7 a5 3c 79 33 00 be 19 a8 a4 bd
       -0.1768241 0.020221628 -0.12519635 -0.080398746
0002d0 9d 48 43 be 6e d6 c3 be 9e 51 6d be 96 fc be be
       -0.19070669 -0.38249534 -0.23175666 -0.37302083
0002e0 92 fb 46 be 6f 9b 8d be 06 71 82 be 24 a5 aa be
       -0.19431904 -0.2765765 -0.25476855 -0.33329117
0002f0 b2 cb 75 be e1 e6 56 3c 2f 01 36 be 84 83 1b bf
       -0.24003485 0.013116569 -0.17773889 -0.6074755
000300 5d 7a b4 be 13 f8 9f bd bc 4f 14 be c8 d5 af be
       -0.35249606 -0.07810988 -0.14483541 -0.3434279
000310 d1 42 68 be 28 cb 78 be 20 06 12 be ff 56 5f be
       -0.22681738 -0.24296248 -0.14260149 -0.2181053
000320 1d ff 46 be 20 b1 e9 bd 00 fb 30 be 1d 18 4d be
       -0.19433255 -0.11410737 -0.17283249 -0.2002873
000330 9b b0 8d 3b da 79 2f bd 20 b4 89 be 81 7c a7 be
       0.0043240315 -0.042840816 -0.26895237 -0.32712176
000340 19 c0 bb be 39 5b 1a be 41 be 16 be e2 a5 85 be
       -0.36669996 -0.15073861 -0.14721014 -0.2610312
000350 b4 65 2a be aa ad 6e be 9c 5c c3 be 41 39 65 be
       -0.16640359 -0.23308435 -0.38156593 -0.22385122
000360 c6 ae a3 be 7e 3a 06 bd 1f 73 49 be 7c a0 ba be
       -0.3196928 -0.032770626 -0.19672821 -0.36450565
000370 ce 54 09 be 8d 24 ac bd c0 ba eb be 50 d2 c8 be
       -0.13411257 -0.08405409 -0.46040916 -0.39222956
000380 71 c6 71 be 96 7e 59 be 46 35 08 bf 36 08 ff bd
       -0.23610856 -0.21239695 -0.5320629 -0.12452738
000390 01 e9 3e be 4b 95 8b bd 75 ac 24 3e 99 23 c4 bd
       -0.18643571 -0.06815585 0.16081412 -0.09577102
0003a0 10 8c e7 be e9 e4 59 be 9a 01 71 3e 08 39 ca 3c
       -0.45224047 -0.21278729 0.23535767 0.024685398
0003b0 5d 37 05 bf 4e e1 b5 bd 1f a4 02 be 4f 7d e7 be
       -0.520376 -0.08880864 -0.1275792 -0.4521279
0003c0 8d f2 25 bc 7f f8 b7 bd d5 47 9b be 54 c5 58 be
       -0.010128629 -0.08982944 -0.3032824 -0.21169025
0003d0 81 9d 5e be 75 cd 29 be 31 54 1c be 23 7f 18 bc
       -0.2173977 -0.16582282 -0.15266491 -0.0093076555
0003e0 a4 63 99 be 34 26 29 be 0e c4 37 be a9 ac 48 be
       -0.29958832 -0.1651848 -0.17945883 -0.19597115
0003f0 fc 2d 98 be c9 67 9f 3e e8 a7 b4 be dc 13 2d 3e
       -0.29722583 0.3113387 -0.35284352 0.16902107

sequential/dense_3/BiasAdd/ReadVariableOp f4 [38]
000000 f1 fc b8 be 66 7d 88 3e 5a d1 ba 3e 54 12 1d bd
       -0.3613048 0.2665817 0.36487848 -0.038347557
000010 cc 2d 22 bf 4c 01 a6 3d 2f 60 30 3e e7 7f e1 bb
       -0.6335113 0.08105716 0.17224191 -0.006881702
000020 d7 68 59 bd 54 c8 02 bf 67 24 1a bf aa 38 2a 3f
       -0.0530785 -0.51086926 -0.60211796 0.6649271
000030 e9 81 8f be 42 ef 1d 3e bd c0 d1 3d 01 43 8d be
       -0.280288 0.15423301 0.1024184 -0.27590182
000040 3b 06 92 3d 05 4e c7 be 9a 1b eb 3d 47 f1 e7 3e
       0.071300946 -0.38926712 0.11479874 0.45301268
000050 8a 7b 57 bd a9 7a 03 3d 8d 8d d3 bd 0a 97 72 3e
       -0.05260805 0.0320994 -0.10329733 0.2369043
000060 2d df 95 3d c1 cc c7 be ee 47 12 3e 3e a0 30 be
       0.07317958 -0.39023402 0.14285251 -0.17248628
000070 e1 77 04 3f 0a 5e bf 3d 04 c5 18 3c 37 9e c3 be
       0.5174542 0.093441084 0.009324316 -0.38206646
000080 57 15 e0 bc 63 6c bd 3d 81 a3 09 3d a7 4a 31 3d
       -0.027353926 0.09249189 0.033603195 0.043284085
000090 0e 53 15 3e fb c4 8d bd
       0.14582464 -0.06922337

sequential/dense_2/BiasAdd/ReadVariableOp f4 [64]
000000 51 85 b8 bd c4 ce 15 3f b5 29 e8 3d 14 87 78 3e
       -0.09009803 0.58518624 0.1133608 0.24270278
000010 cc 2b 41 3c 9e 18 7c bd 5e a6 83 ba 80 a3 fb 3c
       0.011790227 -0.061546914 -0.0010044088 0.030717611
000020 79 f8 42 3f 0b ca 56 3e 1b 07 57 bd 05 f7 7b be
       0.7616039 0.20975511 -0.05249701 -0.24605949
000030 fb d8 4e be ba 91 33 3f 3c 7c 45 be a9 3a 8b 3e
       -0.20199959 0.70144236 -0.19285673 0.27193192
000040 0b f7 5f 3f f2 08 c9 3e 96 bf bb be 84 bd 15 3f
       0.8748633 0.39264637 -0.36669606 0.584923
000050 2d bc 2e 3f 84 70 bd be 3a b4 e9 3d ff cf 04 3f
       0.68255883 -0.36999905 0.114113286 0.51879877
000060 8b 8d 85 be 80 52 70 3c 00 b0 4d be 48 d7 35 3f
       -0.2608455 0.014668107 -0.2008667 0.7103162
000070 c9 ad b4 3d 81 d8 43 3f c3 fa c0 3d 44 ce 8a 3e
       0.088222094 0.76502234 0.09422829 0.27110493
000080 38 50 f0 bd 0d bf ec bd 44 87 40 be 88 a6 2a be
       -0.117340505 -0.115598775 -0.188016 -0.16665089
000090 38 19 42 3c 47 09 b5 be c9 cf 3a be a1 fb b7 3e
       0.011846833 -0.3535864 -0.18243326 0.35934165
0000a0 cd 70 d4 3e 56 e5 27 bf af 87 7c be 28 d9 b0 3d
       0.4149231 -0.65584314 -0.24661134 0.08635169
0000b0 23 d0 78 3e c0 53 00 3f 8e 1e 82 3e f5 12 05 3e
       0.24298148 0.5012779 0.25413936 0.12995513
0000c0 11 b9 02 3e d0 96 b5 3e 06 fb ab 3e 60 da 1b 3d
       0.1276591 0.35466623 0.33589953 0.038050056
0000d0 b6 1c b4 3e 73 94 6a be 47 66 15 bd 3c 06 91 bd
       0.35178155 -0.22908191 -0.036474492 -0.07081267
0000e0 33 8f 3b 3c de 1a 57 be 13 5b 42 3e 1a 47 73 3e
       0.011447716 -0.21006343 0.18980055 0.23757592
0000f0 3e 15 16 3f 2a ce fe 3e 1a 0c 9b be ba 9c 03 3f
       0.58626163 0.49766666 -0.3028267 0.5141102

sequential/dense_1/BiasAdd/ReadVariableOp f4 [128]
000000 56 cf 20 3d fb a8 99 3e 71 c3 34 be b2 fe c4 be
       0.03926023 0.30011734 -0.1765268 -0.38475567
000010 ac 6d d2 3e cd ce da 3c f1 8a 1b 3f 12 a9 09 3e
       0.41099298 0.026709938 0.6075888 0.13443401
000020 da 98 85 be 58 24 56 3d 13 a7 81 3d 5d 9a 1a bd
       -0.2609318 0.052280754 0.06330695 -0.03774487
000030 17 a6 1c 3d 49 38 85 bd ab bb e2 be f2 a7 0f bf
       0.038244333 -0.06504876 -0.44283804 -0.5611564
000040 ee d9 59 be 7f 4a 05 3f 99 d6 9d be 1d 13 22 3d
       -0.2127454 0.52066797 -0.30827788 0.03956901
000050 d4 0d a2 3d e0 bd b2 3c 8e 10 8b 3e 28 a5 1f be
       0.07912794 0.021819055 0.27161068 -0.15590346
000060 71 ef 2f bd 9b 7e 17 3d 44 03 b5 be 0e f0 23 bd
       -0.04295296 0.036985975 -0.35354054 -0.040023856
000070 31 94 a6 bd ba 09 63 3e 5b f5 47 3e 4a 51 35 be
       -0.08133734 0.22171679 0.1952719 -0.1770679
000080 8b 9b d5 bd b9 ad 5d 3e a2 03 6e 3c ab ac 8d bd
       -0.10430058 0.21648301 0.014527233 -0.069176994
000090 4d 0f bc be c1 18 a1 3c 30 2d 0b 3e 08 4f fd bc
       -0.36730424 0.019665124 0.13591456 -0.030921474
0000a0 f1 cd f4 be 21 8a 69 bd 9b ee 12 3e 80 b4 4a 3e
       -0.4781337 -0.057016496 0.14348833 0.19795418
0000b0 9b 1e 17 3e 39 ca 78 be 2c dd 37 3d fe f1 03 bf
       0.14757769 -0.24295892 0.04488866 -0.51541126
0000c0 43 b2 bd bd 96 35 c7 3d d8 44 8f 3d 20 f3 36 3e
       -0.09262516 0.097270176 0.06995553 0.17866182
0000d0 ff 90 4b bd 9f f4 87 be ee 33 a2 3e be fa 6a be
       -0.049698826 -0.2655382 0.31680244 -0.22947213
0000e0 9e 17 ea 3d 08 3f 14 be e5 cb 1b 3e cf 63 b5 3c
       0.11430286 -0.1447717 0.15214498 0.022142319
0000f0 26 f3 fa bc 10 1c 9f be ff 1e bb be 56 f5 76 3e
       -0.03063352 -0.31076097 -0.36547086 0.24117026
000100 58 ec a0 bd e5 c6 a0 be 62 2e 13 3e 8f d4 4c be
       -0.07857579 -0.31401744 0.14373162 -0.2000296
000110 47 c2 21 3d db 41 6a bd f5 e6 6a 3e 12 3c 90 3e
       0.039491918 -0.05719171 0.22939666 0.2817083
000120 bf fb ca be b3 cb 4b be ba 14 f3 be 90 e3 ba 3e
       -0.39645192 -0.19901924 -0.4747675 0.3650174
000130 ce f0 14 bd c1 fc 64 be 29 83 37 bb 38 48 55 3e
       -0.03636246 -0.22362043 -0.0028001762 0.2082833
000140 fb 8a 1d 3e 2f dc 66 be ed ac 95 bd 4d 97 96 3d
       0.15385048 -0.22544931 -0.073083736 0.07353077
000150 91 3a 7a 3d e9 22 22 bd e5 12 e1 bc 57 80 3a be
       0.06109101 -0.039584074 -0.02747483 -0.1821302
000160 14 9f d4 bd 04 62 8c be 71 c6 bf 3e bd 60 23 3d
       -0.10381904 -0.2741853 0.37456086 0.03988718
000170 87 97 8d bc ed a8 52 be 47 aa de 3d f0 4c 13 3e
       -0.017284168 -0.20572253 0.108723216 0.14384818
000180 04 8d e5 3d c1 69 6b be 28 04 83 bd 3a f6 9f be
       0.11208537 -0.2298956 -0.06397277 -0.31242543
000190 a1 c3 7e bd 7a 23 a3 3e 3e 2a e7 bb 56 4e 90 be
       -0.062198285 0.31863004 -0.007054596 -0.28184766
0001a0 62 77 29 3e d7 d1 ff bd 7c d5 6c 3e d7 2a 45 3e
       0.16549447 -0.12491196 0.23128313 0.19254623
0001b0 dd 28 0e 3e 51 7a 7c 3e 16 4c 33 3e 91 2f cc 3d
       0.13882776 0.24656035 0.17509493 0.0997001
0001c0 a5 ef 36 3d 08 ad a2 bc e5 15 3b be ce 87 1e 3e
       0.044662137 -0.019857898 -0.18270071 0.15481493
0001d0 d6 65 9d be 38 d4 28 3d 21 06 82 be 92 df a3 be
       -0.30741757 0.041218013 -0.253953 -0.32006508
0001e0 4c bd 9e be fb ae f0 3e ab a5 4f 3e ff 77 ee bd
       -0.31003797 0.470085 0.20278041 -0.11643981
0001f0 8b 51 af 3d 63 e4 bf 3e 86 f1 27 bd f7 18 cc 3e
       0.08560475 0.37478933 -0.04100182 0.39862797

sequential/dense_3/MatMul i1 [38, 64] scale=0.011699126 zero_point=0
000000 09 d6 11 f3 e2 ec 00 d9 eb bf 24 13 15 f8 e3 1c
       0.105292134 -0.4913633 0.19888514 -0.15208864 -0.35097378 -0.23398252 0.0 -0.45626593 -0.24568164 -0.7604432 0.42116854 0.2222834 0.24568164 -0.09359301 -0.33927464 0.32757553
000010 f6 f2 07 0a 15 02 f8 17 0b 07 07 f2 07 ec 11 e4
       -0.11699126 -0.16378777 0.08189388 0.11699126 0.24568164 0.023398252 -0.09359301 0.2690799 0.12869039 0.08189388 0.08189388 -0.16378777 0.08189388 -0.23398252 0.19888514 -0.32757553
000020 fb ff dc df f1 0a fc 08 eb fd 19 eb 12 f1 ed 06
       -0.05849563 -0.011699126 -0.42116854 -0.38607118 -0.17548689 0.11699126 -0.046796504 0.09359301 -0.24568164 -0.03509738 0.29247814 -0.24568164 0.21058427 -0.17548689 -0.2222834 0.07019476
000030 00 e7 10 f4 0a 12 00 e8 07 f7 f8 fc fa d4 1d e7
       0.0 -0.29247814 0.18718602 -0.14038952 0.11699126 0.21058427 0.0 -0.28077903 0.08189388 -0.105292134 -0.09359301 -0.046796504 -0.07019476 -0.51476157 0.33927464 -0.29247814
000040 1b 30 e8 c1 0b 08 18 0c f8 28 1a f4 f3 f2 dd ff
       0.3158764 0.56155807 -0.28077903 -0.73704493 0.12869039 0.09359301 0.28077903 0.14038952 -0.09359301 0.46796504 0.30417728 -0.14038952 -0.15208864 -0.16378777 -0.40946943 -0.011699126
000050 e9 1c d8 1a 12 e7 e9 11 ee e6 f7 ff 0b 0e cf ea
       -0.2690799 0.32757553 -0.46796504 0.30417728 0.21058427 -0.29247814 -0.2690799 0.19888514 -0.21058427 -0.30417728 -0.105292134 -0.011699126 0.12869039 0.16378777 -0.5732572 -0.25738078
000060 0c f3 f9 ed 10 db 09 f7 eb e0 05 e4 2c ef 16 d9
       0.14038952 -0.15208864 -0.08189388 -0.2222834 0.18718602 -0.43286768 0.105292134 -0.105292134 -0.24568164 -0.37437204 0.05849563 -0.32757553 0.51476157 -0.19888514 0.25738078 -0.45626593
000070 09 d5 f3 05 0d ed ea d1 d8 04 f6 ce 0b 0f 16 18
       0.105292134 -0.5030624 -0.15208864 0.05849563 0.15208864 -0.2222834 -0.25738078 -0.5498589 -0.46796504 0.046796504 -0.11699126 -0.5849563 0.12869039 0.17548689 0.25738078 0.28077903
000080 e0 18 07 fa fb e8 e1 fb f4 f7 15 0a 08 12 e0 f4
       -0.37437204 0.28077903 0.08189388 -0.07019476 -0.05849563 -0.28077903 -0.3626729 -0.05849563 -0.14038952 -0.105292134 0.24568164 0.11699126 0.09359301 0.21058427 -0.37437204 -0.14038952
000090 1e 02 f5 ff 15 de 0f 18 e4 f8 ff 18 13 f5 e7 16
       0.35097378 0.023398252 -0.12869039 -0.011699126 0.24568164 -0.3977703 0.17548689 0.28077903 -0.32757553 -0.09359301 -0.011699126 0.28077903 0.2222834 -0.12869039 -0.29247814 0.25738078
0000a0 12 04 e4 ce eb 07 f0 f4 16 e2 11 ea 1b 09 05 e5
       0.21058427 0.046796504 -0.32757553 -0.5849563 -0.24568164 0.08189388 -0.18718602 -0.14038952 0.25738078 -0.35097378 0.19888514 -0.25738078 0.3158764 0.105292134 0.05849563 -0.3158764
0000b0 11 e7 fe e7 e9 c4 fd dc 1c db e7 da 0d e2 18 1c
       0.19888514 -0.29247814 -0.023398252 -0.29247814 -0.2690799 -0.70194757 -0.03509738 -0.42116854 0.32757553 -0.43286768 -0.29247814 -0.4445668 0.15208864 -0.35097378 0.28077903 0.32757553
0000c0 f8 eb 0f 14 f0 f9 08 0b f8 f6 10 e2 fa 07 0c c7
       -0.09359301 -0.24568164 0.17548689 0.23398252 -0.18718602 -0.08189388 0.09359301 0.12869039 -0.09359301 -0.11699126 0.18718602 -0.35097378 -0.07019476 0.08189388 0.14038952 -0.6668502
0000d0 fa 16 d2 18 c8 d9 f1 f4 f5 eb f7 fe 10 e7 04 fc
       -0.07019476 0.25738078 -0.5381598 0.28077903 -0.65515107 -0.45626593 -0.17548689 -0.14038952 -0.12869039 -0.24568164 -0.105292134 -0.023398252 0.18718602 -0.29247814 0.046796504 -0.046796504
0000e0 fb fc fb fe f3 ef e8 f5 26 14 0b 15 f8 e0 d7 24
       -0.05849563 -0.046796504 -0.05849563 -0.023398252 -0.15208864 -0.19888514 -0.28077903 -0.12869039 0.4445668 0.23398252 0.12869039 0.24568164 -0.09359301 -0.37437204 -0.47966418 0.42116854
0000f0 fd 14 f4 f5 1c f2 00 00 f1 17 18 19 dc e0 ff ee
       -0.03509738 0.23398252 -0.14038952 -0.12869039 0.32757553 -0.16378777 0.0 0.0 -0.17548689 0.2690799 0.28077903 0.29247814 -0.42116854 -0.37437204 -0.011699126 -0.21058427

sequential/dense_2/MatMul i1 [64, 128] scale=0.011319429 zero_point=0
000000 ff 1c f4 13 05 d4 15 dc 0f 12 f0 00 38 09 1a 19
       -0.011319429 0.316944 -0.13583314 0.21506914 0.056597143 -0.49805486 0.237708 -0.40749943 0.16979143 0.20374972 -0.18111086 0.0 0.633888 0.10187486 0.29430515 0.28298572
000010 11 20 0a ee f9 f7 32 08 0d cf f9 19 fb 12 2d 10
       0.19243029 0.36222172 0.11319429 -0.20374972 -0.079236 -0.10187486 0.56597143 0.09055543 0.14715257 -0.554652 -0.079236 0.28298572 -0.056597143 0.20374972 0.50937426 0.18111086
000020 16 05 16 12 0e 03 e3 06 ea ed ff e9 f5 e7 c1 1d
       0.24902743 0.056597143 0.24902743 0.20374972 0.158472 0.033958286 -0.32826343 0.06791657 -0.24902743 -0.21506914 -0.011319429 -0.26034686 -0.124513716 -0.28298572 -0.71312404 0.32826343
000030 1f eb 06 d1 0f 05 18 bc da 17 fe 1a b7 1d d6 f3
       0.3509023 -0.237708 0.06791657 -0.5320132 0.16979143 0.056597143 0.2716663 -0.76972115 -0.4301383 0.26034686 -0.022638857 0.29430515 -0.82631826 0.32826343 -0.475416 -0.14715257
000040 f8 17 f9 f9 ee d3 e6 18 13 07 23 1b 0c 0f f9 f6
       -0.09055543 0.26034686 -0.079236 -0.079236 -0.20374972 -0.50937426 -0.29430515 0.2716663 0.21506914 0.079236 0.39618 0.30562457 0.13583314 0.16979143 -0.079236 -0.11319429
000050 0f 16 14 00 cb fa 0f ff 12 02 10 f3 15 05 05 1f
       0.16979143 0.24902743 0.22638857 0.0 -0.5999297 -0.06791657 0.16979143 -0.011319429 0.20374972 0.022638857 0.18111086 -0.14715257 0.237708 0.056597143 0.056597143 0.3509023
000060 3b f5 24 01 fd 01 04 14 0c 28 0c d8 12 01 34 14
       0.6678463 -0.124513716 0.40749943 0.011319429 -0.033958286 0.011319429 0.045277715 0.22638857 0.13583314 0.45277715 0.13583314 -0.45277715 0.20374972 0.011319429 0.5886103 0.22638857
000070 e2 01 03 19 15 01 1f 0c 10 fa e9 13 f6 fe 0d 14
       -0.33958286 0.011319429 0.033958286 0.28298572 0.237708 0.011319429 0.3509023 0.13583314 0.18111086 -0.06791657 -0.26034686 0.21506914 -0.11319429 -0.022638857 0.14715257 0.22638857
000080 02 0a f3 c0 36 0f 24 02 e2 c9 f4 bd fb e0 08 0c
       0.022638857 0.11319429 -0.14715257 -0.72444344 0.61124915 0.16979143 0.40749943 0.022638857 -0.33958286 -0.6225686 -0.13583314 -0.75840175 -0.056597143 -0.36222172 0.09055543 0.13583314
000090 06 01 f2 dd 01 16 fc f1 b5 1a 0c e8 10 1d f8 ea
       0.06791657 0.011319429 -0.158472 -0.39618 0.011319429 0.24902743 -0.045277715 -0.16979143 -0.8489572 0.29430515 0.13583314 -0.2716663 0.18111086 0.32826343 -0.09055543 -0.24902743
0000a0 ff e3 0c f2 11 f0 00 13 0b 0a 0e fe fb 0a 02 ce
       -0.011319429 -0.32826343 0.13583314 -0.158472 0.19243029 -0.18111086 0.0 0.21506914 0.124513716 0.11319429 0.158472 -0.022638857 -0.056597143 0.11319429 0.022638857 -0.56597143
0000b0 f3 fa 01 fa 0c 05 0a 07 e6 02 07 ff fd 07 02 15
       -0.14715257 -0.06791657 0.011319429 -0.06791657 0.13583314 0.056597143 0.11319429 0.079236 -0.29430515 0.022638857 0.079236 -0.011319429 -0.033958286 0.079236 0.022638857 0.237708
0000c0 09 f1 ec 26 f9 0c 20 ff 16 09 f6 e3 11 df 03 1a
       0.10187486 -0.16979143 -0.22638857 0.4301383 -0.079236 0.13583314 0.36222172 -0.011319429 0.24902743 0.10187486 -0.11319429 -0.32826343 0.19243029 -0.37354115 0.033958286 0.29430515
0000d0 04 fa 05 fd f3 db 1b 12 fc 03 ef 09 10 02 13 21
       0.045277715 -0.06791657 0.056597143 -0.033958286 -0.14715257 -0.41881886 0.30562457 0.20374972 -0.045277715 0.033958286 -0.19243029 0.10187486 0.18111086 0.022638857 0.21506914 0.37354115
0000e0 12 eb d4 01 0e ed d7 24 1d ac 1c 16 1a 0a f2 de
       0.20374972 -0.237708 -0.49805486 0.011319429 0.158472 -0.21506914 -0.46409658 0.40749943 0.32826343 -0.950832 0.316944 0.24902743 0.29430515 0.11319429 -0.158472 -0.38486058
0000f0 ff e7 ff d9 f0 e4 ff e0 0e 0a 0b fc 0a 08 06 ff
       -0.011319429 -0.28298572 -0.011319429 -0.44145772 -0.18111086 -0.316944 -0.011319429 -0.36222172 0.158472 0.11319429 0.124513716 -0.045277715 0.11319429 0.09055543 0.06791657 -0.011319429

sequential/dense_1/MatMul i1 [128, 256] scale=0.010948991 zero_point=0
000000 da fb b9 03 fc 01 eb e6 04 0c fd f7 0e e9 01 06
       -0.41606167 -0.05474496 -0.7773784 0.032846972 -0.043795966 0.010948991 -0.22992882 -0.28467378 0.043795966 0.13138789 -0.032846972 -0.098540924 0.15328588 -0.2518268 0.010948991 0.065693945
000010 16 e5 f0 0f 04 04 ef f1 fd ed 02 12 ef fc f4 fe
       0.2408778 -0.29562277 -0.17518386 0.16423488 0.043795966 0.043795966 -0.18613285 -0.16423488 -0.032846972 -0.20803083 0.021897983 0.19708185 -0.18613285 -0.043795966 -0.13138789 -0.021897983
000020 09 fb 04 d7 04 4f f2 fa 1b ff 10 fc 30 fc 01 07
       0.098540924 -0.05474496 0.043795966 -0.44890866 0.043795966 0.8649703 -0.15328588 -0.065693945 0.29562277 -0.010948991 0.17518386 -0.043795966 0.52555156 -0.043795966 0.010948991 0.07664294
000030 07 e0 f2 fd ff f8 da da 15 e3 e1 e8 03 f4 f3 f8
       0.07664294 -0.35036772 -0.15328588 -0.032846972 -0.010948991 -0.08759193 -0.41606167 -0.41606167 0.22992882 -0.31752074 -0.33941874 -0.26277578 0.032846972 -0.13138789 -0.14233689 -0.08759193
000040 e9 fa 06 ec 02 f7 01 fb 0f 0b 12 fb 0d 0d 0c 06
       -0.2518268 -0.065693945 0.065693945 -0.21897984 0.021897983 -0.098540924 0.010948991 -0.05474496 0.16423488 0.1204389 0.19708185 -0.05474496 0.14233689 0.14233689 0.13138789 0.065693945
000050 1a f2 07 07 f0 10 fe fc 09 fc fa fc 0a 01 ef ef
       0.28467378 -0.15328588 0.07664294 0.07664294 -0.17518386 0.17518386 -0.021897983 -0.043795966 0.098540924 -0.043795966 -0.065693945 -0.043795966 0.10948992 0.010948991 -0.18613285 -0.18613285
000060 22 09 11 01 07 05 0c f5 08 00 ff 16 00 05 ff 00
       0.3722657 0.098540924 0.18613285 0.010948991 0.07664294 0.05474496 0.13138789 -0.1204389 0.08759193 0.0 -0.010948991 0.2408778 0.0 0.05474496 -0.010948991 0.0
000070 10 0b 02 0b 1e 00 fa f8 fd f4 f9 0b f0 fa 0a 56
       0.17518386 0.1204389 0.021897983 0.1204389 0.32846975 0.0 -0.065693945 -0.08759193 -0.032846972 -0.13138789 -0.07664294 0.1204389 -0.17518386 -0.065693945 0.10948992 0.94161326
000080 08 01 e9 ed 07 f1 f6 ea f3 16 07 0f 17 f4 08 0c
       0.08759193 0.010948991 -0.2518268 -0.20803083 0.07664294 -0.16423488 -0.10948992 -0.2408778 -0.14233689 0.2408778 0.07664294 0.16423488 0.2518268 -0.13138789 0.08759193 0.13138789
000090 07 0a 1b de 07 16 ef fc 15 f9 fb f1 e7 fa 0d f9
       0.07664294 0.10948992 0.29562277 -0.3722657 0.07664294 0.2408778 -0.18613285 -0.043795966 0.22992882 -0.07664294 -0.05474496 -0.16423488 -0.2737248 -0.065693945 0.14233689 -0.07664294
0000a0 f8 16 fc f9 ff 19 e8 09 30 ea e5 01 fb 0e d0 12
       -0.08759193 0.2408778 -0.043795966 -0.07664294 -0.010948991 0.2737248 -0.26277578 0.098540924 0.52555156 -0.2408778 -0.29562277 0.010948991 -0.05474496 0.15328588 -0.52555156 0.19708185
0000b0 f8 19 e6 02 d0 07 17 ea e4 f6 fe f6 f7 f9 f4 17
       -0.08759193 0.2737248 -0.28467378 0.021897983 -0.52555156 0.07664294 0.2518268 -0.2408778 -0.30657175 -0.10948992 -0.021897983 -0.10948992 -0.098540924 -0.07664294 -0.13138789 0.2518268
0000c0 06 21 0f 02 1d 09 10 02 ea ff ff f9 f2 f2 ff f9
       0.065693945 0.3613167 0.16423488 0.021897983 0.31752074 0.098540924 0.17518386 0.021897983 -0.2408778 -0.010948991 -0.010948991 -0.07664294 -0.15328588 -0.15328588 -0.010948991 -0.07664294
0000d0 f6 df f7 ff 0e e5 fe 00 07 15 ea 0c f4 f0 06 00
       -0.10948992 -0.3613167 -0.098540924 -0.010948991 0.15328588 -0.29562277 -0.021897983 0.0 0.07664294 0.22992882 -0.2408778 0.13138789 -0.13138789 -0.17518386 0.065693945 0.0
0000e0 0d 12 ec f8 fe 01 ea 00 09 eb f7 f4 29 1a 0e fc
       0.14233689 0.19708185 -0.21897984 -0.08759193 -0.021897983 0.010948991 -0.2408778 0.0 0.098540924 -0.22992882 -0.098540924 -0.13138789 0.44890866 0.28467378 0.15328588 -0.043795966
0000f0 0a 0d e6 fe fc e2 fc fa f4 0b 0c e3 ed 1f e3 09
       0.10948992 0.14233689 -0.28467378 -0.021897983 -0.043795966 -0.32846975 -0.043795966 -0.065693945 -0.13138789 0.1204389 0.13138789 -0.31752074 -0.20803083 0.33941874 -0.31752074 0.098540924

sequential/dense/MatMul i1 [256, 42] scale=0.018464267 zero_point=0
000000 01 01 fe fc 00 03 ff 03 04 03 00 03 02 09 03 08
       0.018464267 0.018464267 -0.036928535 -0.07385707 0.0 0.0553928 -0.018464267 0.0553928 0.07385707 0.0553928 0.0 0.0553928 0.036928535 0.1661784 0.0553928 0.14771414
000010 02 0c 02 09 03 07 01 03 03 02 06 1c 04 fd ff fb
       0.036928535 0.2215712 0.036928535 0.1661784 0.0553928 0.12924987 0.018464267 0.0553928 0.0553928 0.036928535 0.1107856 0.5169995 0.07385707 -0.0553928 -0.018464267 -0.092321336
000020 cd 01 03 14 ff fd 01 f6 04 fb f9 05 1a f6 07 04
       -0.94167763 0.018464267 0.0553928 0.36928535 -0.018464267 -0.0553928 0.018464267 -0.18464267 0.07385707 -0.092321336 -0.12924987 0.092321336 0.48007095 -0.18464267 0.12924987 0.07385707
000030 fe 03 02 05 06 09 06 05 f3 00 e8 00 03 13 fc 08
       -0.036928535 0.0553928 0.036928535 0.092321336 0.1107856 0.1661784 0.1107856 0.092321336 -0.24003547 0.0 -0.4431424 0.0 0.0553928 0.35082108 -0.07385707 0.14771414
000040 fc 03 fd f9 03 24 fd 0c f8 fc f7 f6 fe 28 00 07
       -0.07385707 0.0553928 -0.0553928 -0.12924987 0.0553928 0.6647136 -0.0553928 0.2215712 -0.14771414 -0.07385707 -0.1661784 -0.18464267 -0.036928535 0.7385707 0.0 0.12924987
000050 fd f5 fe f5 04 07 fc 07 00 fe 02 ff 03 ff ff 06
       -0.0553928 -0.20310694 -0.036928535 -0.20310694 0.07385707 0.12924987 -0.07385707 0.12924987 0.0 -0.036928535 0.036928535 -0.018464267 0.0553928 -0.018464267 -0.018464267 0.1107856
000060 02 03 00 02 01 01 ff 00 01 ff 02 fe 02 fe 00 f8
       0.036928535 0.0553928 0.0 0.036928535 0.018464267 0.018464267 -0.018464267 0.0 0.018464267 -0.018464267 0.036928535 -0.036928535 0.036928535 -0.036928535 0.0 -0.14771414
000070 02 f8 02 fc 03 fa 02 f2 03 f2 07 3a ce 2f 07 06
       0.036928535 -0.14771414 0.036928535 -0.07385707 0.0553928 -0.1107856 0.036928535 -0.25849974 0.0553928 -0.25849974 0.12924987 1.0709275 -0.92321336 0.86782056 0.12924987 0.1107856
000080 04 fb 02 04 02 05 0a 05 fc 02 01 ff ff 05 02 13
       0.07385707 -0.092321336 0.036928535 0.07385707 0.036928535 0.092321336 0.18464267 0.092321336 -0.07385707 0.036928535 0.018464267 -0.018464267 -0.018464267 0.092321336 0.036928535 0.35082108
000090 03 05 02 00 01 02 05 03 05 06 04 00 fd f9 f6 f2
       0.0553928 0.092321336 0.036928535 0.0 0.018464267 0.036928535 0.092321336 0.0553928 0.092321336 0.1107856 0.07385707 0.0 -0.0553928 -0.12924987 -0.18464267 -0.25849974
0000a0 02 05 06 02 01 f7 de f0 fb fc f2 00 f8 01 ff 02
       0.036928535 0.092321336 0.1107856 0.036928535 0.018464267 -0.1661784 -0.6277851 -0.29542828 -0.092321336 -0.07385707 -0.25849974 0.0 -0.14771414 0.018464267 -0.018464267 0.036928535
0000b0 04 01 03 00 fb 02 ee ff e1 ff 1a 00 08 ff 09 02
       0.07385707 0.018464267 0.0553928 0.0 -0.092321336 0.036928535 -0.3323568 -0.018464267 -0.5723923 -0.018464267 0.48007095 0.0 0.14771414 -0.018464267 0.1661784 0.036928535
0000c0 08 fe 14 ff ff fe 03 00 ff ff 02 ff f2 00 f5 00
       0.14771414 -0.036928535 0.36928535 -0.018464267 -0.018464267 -0.036928535 0.0553928 0.0 -0.018464267 -0.018464267 0.036928535 -0.018464267 -0.25849974 0.0 -0.20310694 0.0
0000d0 f4 01 fa 06 fe 11 fe 06 01 05 fd 05 01 01 02 02
       -0.2215712 0.018464267 -0.1107856 0.1107856 -0.036928535 0.31389254 -0.036928535 0.1107856 0.018464267 0.092321336 -0.0553928 0.092321336 0.018464267 0.018464267 0.036928535 0.036928535
0000e0 03 d6 04 08 fb 02 00 03 fe 01 01 02 00 00 00 04
       0.0553928 -0.7754992 0.07385707 0.14771414 -0.092321336 0.036928535 0.0 0.0553928 -0.036928535 0.018464267 0.018464267 0.036928535 0.0 0.0 0.0 0.07385707
0000f0 00 01 01 02 ff 00 02 01 01 02 00 ff 07 ff 02 0f
       0.0 0.018464267 0.018464267 0.036928535 -0.018464267 0.0 0.036928535 0.018464267 0.018464267 0.036928535 0.0 -0.018464267 0.12924987 -0.018464267 0.036928535 0.276964
