model/keypoint_classifier/keypoint_classifier.tflite (tflite, 40040 bytes, 6 tensors)

sequential_1/dense_5/BiasAdd/ReadVariableOp f4 [38]
00000000: e2af adbe 26bf b23e a980 b63e 399b f03d
00000010: 34ba 8dbe 66cd a53d 83ce 303d 7637 f3bd
00000020: 7138 a4bb f788 13bf fb2c d3be c840 073f
00000030: 9141 243d 9bd3 2e3d 9bf9 3d3e 4323 a8be
00000040: 81f3 af3d 227a b5be 74f9 c53c 8613 b33e
00000050: 3134 0bbe 7fac 51bd b934 1e3d 659d b03e
00000060: 290c 0d3e 02d6 72be e343 963d f40d e8bd
00000070: 7ef2 ce3e deca 8fbc c8db 24be bb78 18bf
00000080: 9532 1ebe 6dfb 833d 140b 623e 3768 773e
00000090: 4fed da39 bf95 4fbd
-0.3392325 0.3491146 0.35645035 0.11748356 -0.27681124 0.08095817 0.043165695 -0.11875813
-0.005011611 -0.57630867 -0.41245255 0.52833223 0.04010159 0.04268227 0.18552248 -0.32839403
0.085913666 -0.35444742 0.0241668 0.34975833 -0.13594128 -0.051189896 0.0386245 0.34495082
0.1377417 -0.2371445 0.07337167 -0.11330786 0.40419382 -0.01755279 -0.16099465 -0.5955922
-0.15448983 0.0644444 0.22074538 0.24160849 0.0004175701 -0.05067992

sequential_1/dense_4/BiasAdd/ReadVariableOp f4 [150]
00000000: dd62 9c3e dc0b 04be 9d17 4b3e a75d a63e
00000010: 84c0 21be 9bea 8a3f ce11 30bd e4a7 abbe
00000020: eecc ae3e 300d 453f 8ea5 2e3d 4f96 68be
00000030: b2ec 783c 011a 5d3e 5560 013f fb7d 363e
00000040: 5f0c d8be f825 f73e 7b59 3bbe a551 9fbc
00000050: 66b8 a2bd 4d70 3bbe 3aba 8fbe 30ce 00bf
00000060: 3bfa 95be 0ea6 0b3e f135 09bf 18ff 57bc
00000070: f188 a23e d75c 38bd b25b 003e 2d4d eb3e
00000080: 026b 4dbc e8c3 aebd ad49 01bf 29b2 e53c
00000090: 4aa1 e53e ddca 4fbe 06f5 d43e babd 903d
000000a0: 180b 3c3f cb75 dabe ee14 b23e f788 c5be
000000b0: 43ab 5abe fa01 ee3d a4cd 5fbe 437a e2be
000000c0: 1148 243f 3687 adbd ff69 78be 07e9 663f
000000d0: 7cf1 8d3e f3a4 4dbe bdca f53d de37 1c3f
000000e0: 2264 623d ed27 893e f800 f13e 3735 f4be
000000f0: 12c6 3e3f 901b 1e3d 1547 043d f7ed d4be
00000100: 40e0 653d 127f ec3d 4188 4b3f 0f30 873e
00000110: 2421 9d3f ffb8 af3c 32e1 39be 1bdb 0cbf
00000120: 2218 7fbe 38d1 f33e e016 0dbe 4c33 e33c
00000130: 4973 cdbe 6c38 113f ec72 c33e e7f5 f6bd
00000140: d279 993e c3d2 babe b1e6 a3be e73b 3d3e
00000150: d69f 223f 7ceb 983e 79a2 173e 319e 0e3d
00000160: 0a38 0b3e f9a3 da3e f61e 57be 6b34 813e
00000170: 6205 183f 1b8e 2c3f 8c20 4c3d d85d 01be
00000180: 602b 3bbf b440 6d3e 2e81 1a3e 43b5 11be
00000190: 358e 6a3d 9f2e 8dbe 4d87 3abc eac0 b5bd
000001a0: 448a 5fbe 95c2 92be 3f0c e3bc 8df3 b4be
000001b0: 5d58 a93e fe66 fdbe 2f17 8f3e a46b bb3e
000001c0: 099e 42be 2d93 14be f5c5 cc3e cf54 313f
000001d0: 3bfa 6e3e 93de 96bd 755b 843e cd1b 0bbf
000001e0: ea57 b7be c94e 863d 4758 11bf a2f6 d4bd
000001f0: 8335 c33e d5d9 5fbf e059 14be 3759 d4be
00000200: bf74 343e c60b f1be ffd6 1fbe af36 41be
00000210: c77b b93b 25fc ec3e 219d 87be 69a4 09be
00000220: 46a0 423e 3cd5 e63b 1d21 1ebd d00d ac3e
00000230: f0f0 003f f913 813e 3b1d cf3e 7242 0fbd
00000240: 535f c43e 6c25 11bf c263 013f ab54 c63e
00000250: 1aed edbe 1cbd 153f
0.30544177 -0.12895149 0.19833227 0.32493326 -0.15796095 1.0852846 -0.04298573 -0.33526528
0.34140724 0.7697325 0.042638354 -0.22713588 0.015193151 0.21591951 0.50537616 0.17821495
-0.42196938 0.48271155 -0.18295853 -0.01944811 -0.079453275 -0.18304558 -0.28071767 -0.5031462
-0.29292473 0.13637564 -0.53597933 -0.013183378 0.31745103 -0.045010414 0.12534979 0.45957318
-0.01253772 -0.0853346 -0.50503045 0.028039055 0.44849616 -0.2029223 0.41593188 0.070674375
0.7345443 -0.42667994 0.34781593 -0.38581058 -0.21354394 0.11621471 -0.2185579 -0.44233903
0.64172465 -0.08473055 -0.24259184 0.9019932 0.277233 -0.20082454 0.1200156 0.61022747
0.055271275 0.26788273 0.47071052 -0.4769685 0.7452098 0.038600504 0.03229435 -0.41587803
0.056122065 0.11547674 0.7950478 0.26403853 1.2275739 0.021450518 -0.18152311 -0.5502183
-0.2491155 0.4762056 -0.13778257 0.027734421 -0.40127018 0.5672672 0.38173616 -0.12058621
0.29975754 -0.36488923 -0.3201194 0.18479882 0.6352514 0.2986716 0.14808072 0.03481883
0.13595596 0.42703226 -0.21007904 0.25235304 0.59383214 0.67404336 0.049835727 -0.12633455
-0.7311306 0.23169214 0.1508834 -0.14229302 0.057264525 -0.27574632 -0.011384797 -0.08874686
-0.21830088 -0.2866408 -0.0277158 -0.35342064 0.33075228 -0.4949264 0.27947375 0.3660556
-0.19005598 -0.14509268 0.3999478 0.6927003 0.23337643 -0.073666714 0.25851026 -0.54339296
-0.3580926 0.06557996 -0.56775326 -0.10398604 0.38126764 -0.8744176 -0.1448741 -0.41474316
0.1762266 -0.47079295 -0.15609358 -0.18868516 0.0056605074 0.4628612 -0.26487067 -0.13441624
0.19006452 0.0070444625 -0.038605798 0.33604288 0.5036764 0.2521055 0.4045199 -0.034975477
0.38353977 -0.56697726 0.50542843 0.38736472 -0.46469957 0.58491683

sequential_1/dense_3/BiasAdd/ReadVariableOp f4 [160]
00000000: 540c 2fbe e7ec 64be 4883 00bf 7c6a 013e
00000010: 777a e4bd 6187 993d 56f9 1abe 0273 8dbe
00000020: c6e9 92be 51a4 febe cb73 2bbe 1a97 6bbe
00000030: 7734 c7be 3f40 e8be d6c0 99be 7a92 b3be
00000040: 9bea 41be 7969 00be 6114 28bf 425e bdbe
00000050: cc3b d3be 54e2 6e3e 7b3c 8c3d 4a71 dbbd
00000060: d50f 14bf 2128 0f3d a612 d8be 71be a7be
00000070: 5ec8 6dbe 9cfd bdbe a755 b4be 1590 10be
00000080: 850d 2ebf 681f 50be e325 9ebd 8739 6cbe
00000090: 912a f0be 81ab f9bd ea75 0b3e 55ce 5fbe
000000a0: 30fb d9be ee6f 17bf e4a5 77be 9c22 b6bd
000000b0: da27 e5bd 4dfb fabd 9036 85bd f367 82bd
000000c0: def2 c1be 5872 fbbd af26 50bf b089 bdbd
000000d0: 6efb 80be c6af 85be ff12 06be cdb1 fcbd
000000e0: b944 92be 5a9e 3dbe 07f5 85be 126a adbe
000000f0: 4510 47be fa07 b83e 61cd c2be b7e1 92be
00000100: e6ed e8be 9184 8fbe b297 98be 7ed7 1bbc
00000110: 680c 18bf f54a a63e d3fc 2abe f114 3d3d
00000120: 0e2b cfbe 2fb2 18bf c51f 07be 43d0 5abe
00000130: 2c26 04be a82d 0bbd 7611 87be a4a8 dcbe
00000140: 1a14 78be 910e c7bd a1a2 50be 0eb0 febd
00000150: cf15 95be dfab 54be 47f9 9cbd 0de3 a9be
00000160: 9348 b83c 270d 373d 2582 e8bd 9479 40bd
00000170: a25e 643e 4791 103e 24f0 b6bd 601b 63be
00000180: 06f1 33bf b58f 98bd 94d4 c3be 8d21 8cbe
00000190: 641a 3abe 73a0 42be d8a8 bfbe 3009 09bf
000001a0: 4266 87bd de57 5cbc 6a35 bcbe 1ff3 c3be
000001b0: 7edf 92be 11fe 22be 6f9b fdbe 2c44 1f39
000001c0: c463 f4bd 9901 5ebe ffaa 61be 083e 17bf
000001d0: 9133 c8be a3c7 6dbe b23f 86be 1d8c f8be
000001e0: 053f 26be 8bab 9ebe c10c 41be 73bb 113e
000001f0: f2ff 4dbe 29fe e3be e44e b93e 7afc c4be
00000200: c98e 08bf e0e7 a2be 490d d43c bdb9 8e3d
00000210: 18a9 3e3e 1c0f 48bc d9c6 79be c6ac 03bf
00000220: d297 293e ad7e 6ebd 9a1a 12bb 4a99 d93d
00000230: d552 14bf 559c 97be dcac 82be 4864 77be
00000240: 0951 833e 7282 84be 609b 1fbe 0c3f 72be
00000250: 5868 92be 122b 74be 63c0 85bd 9839 153d
00000260: f4e5 c3bd efd3 debd 83ba b7bd 75b8 bfbd
00000270: dcc1 3bbe fade c2be d68d 97bd e05f 1cbf
-0.17094547 -0.22355996 -0.5020032 0.12638277 -0.11156171 0.074965246 -0.15134177 -0.27626806
-0.2869398 -0.49734738 -0.1674339 -0.2300686 -0.38907215 -0.45361516 -0.30029935 -0.3507269
-0.18937151 -0.12540235 -0.65656096 -0.36985976 -0.4125656 0.23328525 0.06847473 -0.107149675
-0.5783666 0.03495038 -0.42201728 -0.32762483 -0.23220965 -0.3710755 -0.35221598 -0.14117463
-0.6798938 -0.2032448 -0.0772207 -0.2306882 -0.46907476 -0.12190915 0.136192 -0.21856053
-0.42574453 -0.59155166 -0.24184376 -0.0889332 -0.11189242 -0.12254963 -0.065045476 -0.06367483
-0.37880605 -0.12277669 -0.81309026 -0.092547774 -0.25191826 -0.26110667 -0.13093184 -0.123386
-0.28568056 -0.18517438 -0.26163504 -0.33869988 -0.194398 0.35943586 -0.38047317 -0.28687832
-0.45494002 -0.28030828 -0.29803234 -0.009511827 -0.5939393 0.32479063 -0.16698007 0.04616255
-0.40462536 -0.59646887 -0.13195713 -0.21368508 -0.12905186 -0.033979088 -0.2638051 -0.43097413
-0.24226418 -0.09719575 -0.20374538 -0.124359235 -0.291182 -0.20768689 -0.076647334 -0.33181038
0.022495544 0.044690277 -0.11352948 -0.046990946 0.22301725 0.14117919 -0.08932522 -0.22178411
-0.7028965 -0.07449285 -0.38248122 -0.27369347 -0.1817413 -0.19006519 -0.37433505 -0.53529644
-0.06611301 -0.013448684 -0.36759502 -0.38271424 -0.28686136 -0.15917231 -0.4953265 0.00015188818
-0.11933091 -0.21680297 -0.22037886 -0.5907903 -0.39101842 -0.23220687 -0.2622047 -0.48544398
-0.16234978 -0.30990252 -0.18852521 0.14231662 -0.20117167 -0.44529846 0.36193 -0.38473874
-0.5334287 -0.31817532 0.025885241 0.069690205 0.18619192 -0.012210634 -0.2439226 -0.51435506
0.16561821 -0.058226276 -0.0022293688 0.10624941 -0.5793889 -0.2961146 -0.25522506 -0.24159348
0.25647762 -0.25880772 -0.15586615 -0.23656863 -0.28595233 -0.23844555 -0.065308355 0.03643188
-0.095653445 -0.10880267 -0.08971121 -0.09361354 -0.1833567 -0.38060743 -0.074001 -0.61083794

sequential_1/dense_5/MatMul i1 [38, 150] scale=0.0161222 zero_point=0
00000000: 030c c6f1 e2f2 07d6 fee0 fde7 e7f8 edfe
00000010: 0ce9 1101 fd0f f60e eee9 000a 0cee c9f2
00000020: ec25 e912 feef 000e 07ef ff00 0afa 0f0b
00000030: fae8 15f0 fc02 03ff e505 e602 dcf7 1118
00000040: 160c f002 f9d5 0311 0de7 06ec 17ff f306
00000050: fa08 05df e0ea f80a 03fd 1d09 fc00 0afe
00000060: 0303 e402 09fa 0c06 1811 0206 060e f7dc
00000070: 090b 04f0 0afe f213 17eb 290b fd07 0413
00000080: ec0a ffee 0fd4 fdfd 1aeb 080d 01d9 ef2a
00000090: fafa fb16 09f6 06d0 0a03 1508 0815 02f6
000000a0: e3f0 f90a ca08 b901 fb03 d7fb f1be 0704
000000b0: f8dd 1116 2513 05fc c205 020d fff4 07e0
000000c0: 0f0d f6fe e7f5 00c2 1109 f2c3 f41c fa0c
000000d0: fbfc f411 10fd 0ffd 0306 24d7 f706 0610
000000e0: 0833 0804 d7f8 03e4 e615 fb14 ff03 15da
000000f0: ef0e f3f0 fcfc e6fa 0315 060c 04d7 c40a
0.0483666 0.1934664 -0.93508756 -0.241833 -0.483666 -0.2257108 0.1128554 -0.67713237
-0.0322444 -0.5159104 -0.0483666 -0.40305498 -0.40305498 -0.1289776 -0.3063218 -0.0322444
0.1934664 -0.3708106 0.2740774 0.0161222 -0.0483666 0.241833 -0.161222 0.2257108
-0.29019958 -0.3708106 0.0 0.161222 0.1934664 -0.29019958 -0.88672096 -0.2257108
-0.322444 0.5965214 -0.3708106 0.29019958 -0.0322444 -0.2740774 0.0 0.2257108
0.1128554 -0.2740774 -0.0161222 0.0 0.161222 -0.0967332 0.241833 0.1773442
-0.0967332 -0.3869328 0.33856618 -0.2579552 -0.0644888 0.0322444 0.0483666 -0.0161222
-0.4352994 0.080611 -0.41917717 0.0322444 -0.58039916 -0.14509979 0.2740774 0.3869328
0.3546884 0.1934664 -0.2579552 0.0322444 -0.1128554 -0.6932546 0.0483666 0.2740774
0.20958859 -0.40305498 0.0967332 -0.322444 0.3708106 -0.0161222 -0.20958859 0.0967332
-0.0967332 0.1289776 0.080611 -0.5320326 -0.5159104 -0.3546884 -0.1289776 0.161222
0.0483666 -0.0483666 0.46754378 0.14509979 -0.0644888 0.0 0.161222 -0.0322444
0.0483666 0.0483666 -0.4514216 0.0322444 0.14509979 -0.0967332 0.1934664 0.0967332
0.3869328 0.2740774 0.0322444 0.0967332 0.0967332 0.2257108 -0.14509979 -0.58039916
0.14509979 0.1773442 0.0644888 -0.2579552 0.161222 -0.0322444 -0.2257108 0.3063218
0.3708106 -0.33856618 0.6610102 0.1773442 -0.0483666 0.1128554 0.0644888 0.3063218
-0.322444 0.161222 -0.0161222 -0.29019958 0.241833 -0.7093768 -0.0483666 -0.0483666
0.41917717 -0.33856618 0.1289776 0.20958859 0.0161222 -0.62876576 -0.2740774 0.67713237
-0.0967332 -0.0967332 -0.080611 0.3546884 0.14509979 -0.161222 0.0967332 -0.7738656
0.161222 0.0483666 0.33856618 0.1289776 0.1289776 0.33856618 0.0322444 -0.161222
-0.46754378 -0.2579552 -0.1128554 0.161222 -0.8705988 0.1289776 -1.1446762 0.0161222
-0.080611 0.0483666 -0.6610102 -0.080611 -0.241833 -1.0640652 0.1128554 0.0644888
-0.1289776 -0.564277 0.2740774 0.3546884 0.5965214 0.3063218 0.080611 -0.0644888
-0.9995764 0.080611 0.0322444 0.20958859 -0.0161222 -0.1934664 0.1128554 -0.5159104
0.241833 0.20958859 -0.161222 -0.0322444 -0.40305498 -0.1773442 0.0 -0.9995764
0.2740774 0.14509979 -0.2257108 -0.98345417 -0.1934664 0.4514216 -0.0967332 0.1934664
-0.080611 -0.0644888 -0.1934664 0.2740774 0.2579552 -0.0483666 0.241833 -0.0483666
0.0483666 0.0967332 0.58039916 -0.6610102 -0.14509979 0.0967332 0.0967332 0.2579552
0.1289776 0.8222322 0.1289776 0.0644888 -0.6610102 -0.1289776 0.0483666 -0.4514216
-0.41917717 0.33856618 -0.080611 0.322444 -0.0161222 0.0483666 0.33856618 -0.6126436
-0.2740774 0.2257108 -0.20958859 -0.2579552 -0.0644888 -0.0644888 -0.41917717 -0.0967332
0.0483666 0.33856618 0.0967332 0.1934664 0.0644888 -0.6610102 -0.967332 0.161222

sequential_1/dense_4/MatMul i1 [150, 160] scale=0.017756267 zero_point=0
00000000: 1412 fcfc fbe0 0a07 ed0a ec08 0805 f9f4
00000010: fa14 06ef 060b fc12 0512 f303 010a fd0a
00000020: f703 24ed 0afc cde3 f109 f8f2 e933 f149
00000030: 09ea 03ee fa13 f909 f103 06f7 0311 fe13
00000040: f2f4 0510 1d05 18fc 1404 0deb 0e07 fa12
00000050: 17fe 16e9 e32c 0802 0206 fdf8 10dc 2910
00000060: 03fd 0500 ef08 05fd 2df3 f0fc 0afb 050a
00000070: eb00 f8f7 f612 0707 e807 021e d109 04fe
00000080: 1502 0a0e f304 f6fe 0d04 f9ff 04fd e309
00000090: 0ef9 05ef f60c 09ec de02 140b f3f4 05fe
000000a0: f9f8 e4fb 060a 0523 1ded 1101 100a 02f4
000000b0: f0fc 00fe 0200 f8ff 04dd fc07 f8f3 0afa
000000c0: 0c15 fe0c 100d 07f9 0702 fe01 f5ee ffff
000000d0: 2cf8 20ff 16fa 0901 f820 f61b f4f7 0939
000000e0: fc05 09fc 0af3 eff5 0a0a 01f0 f905 ec06
000000f0: 0626 fe08 1bfd f9fd ef0b f1fe f002 fd00
0.35512534 0.3196128 -0.071025066 -0.071025066 -0.088781334 -0.5682005 0.17756267 0.124293864
-0.33736905 0.17756267 -0.35512534 0.14205013 0.14205013 0.088781334 -0.124293864 -0.21307519
-0.106537595 0.35512534 0.106537595 -0.30185652 0.106537595 0.19531894 -0.071025066 0.3196128
0.088781334 0.3196128 -0.23083146 0.053268798 0.017756267 0.17756267 -0.053268798 0.17756267
-0.1598064 0.053268798 0.6392256 -0.33736905 0.17756267 -0.071025066 -0.9055696 -0.51493174
-0.266344 0.1598064 -0.14205013 -0.24858773 -0.40839413 0.9055696 -0.266344 1.2962074
0.1598064 -0.39063787 0.053268798 -0.3196128 -0.106537595 0.33736905 -0.124293864 0.1598064
-0.266344 0.053268798 0.106537595 -0.1598064 0.053268798 0.30185652 -0.035512533 0.33736905
-0.24858773 -0.21307519 0.088781334 0.28410026 0.51493174 0.088781334 0.42615038 -0.071025066
0.35512534 0.071025066 0.23083146 -0.3728816 0.24858773 0.124293864 -0.106537595 0.3196128
0.40839413 -0.035512533 0.39063787 -0.40839413 -0.51493174 0.78127575 0.14205013 0.035512533
0.035512533 0.106537595 -0.053268798 -0.14205013 0.28410026 -0.6392256 0.7280069 0.28410026
0.053268798 -0.053268798 0.088781334 0.0 -0.30185652 0.14205013 0.088781334 -0.053268798
0.799032 -0.23083146 -0.28410026 -0.071025066 0.17756267 -0.088781334 0.088781334 0.17756267
-0.3728816 0.0 -0.14205013 -0.1598064 -0.17756267 0.3196128 0.124293864 0.124293864
-0.42615038 0.124293864 0.035512533 0.532688 -0.83454454 0.1598064 0.071025066 -0.035512533
0.3728816 0.035512533 0.17756267 0.24858773 -0.23083146 0.071025066 -0.17756267 -0.035512533
0.23083146 0.071025066 -0.124293864 -0.017756267 0.071025066 -0.053268798 -0.51493174 0.1598064
0.24858773 -0.124293864 0.088781334 -0.30185652 -0.17756267 0.21307519 0.1598064 -0.35512534
-0.60371304 0.035512533 0.35512534 0.19531894 -0.23083146 -0.21307519 0.088781334 -0.035512533
-0.124293864 -0.14205013 -0.49717546 -0.088781334 0.106537595 0.17756267 0.088781334 0.6214693
0.51493174 -0.33736905 0.30185652 0.017756267 0.28410026 0.17756267 0.035512533 -0.21307519
-0.28410026 -0.071025066 0.0 -0.035512533 0.035512533 0.0 -0.14205013 -0.017756267
0.071025066 -0.6214693 -0.071025066 0.124293864 -0.14205013 -0.23083146 0.17756267 -0.106537595
0.21307519 0.3728816 -0.035512533 0.21307519 0.28410026 0.23083146 0.124293864 -0.124293864
0.124293864 0.035512533 -0.035512533 0.017756267 -0.19531894 -0.3196128 -0.017756267 -0.017756267
0.78127575 -0.14205013 0.5682005 -0.017756267 0.39063787 -0.106537595 0.1598064 0.017756267
-0.14205013 0.5682005 -0.17756267 0.4794192 -0.21307519 -0.1598064 0.1598064 1.0121071
-0.071025066 0.088781334 0.1598064 -0.071025066 0.17756267 -0.23083146 -0.30185652 -0.19531894
0.17756267 0.17756267 0.017756267 -0.28410026 -0.124293864 0.088781334 -0.35512534 0.106537595
0.106537595 0.6747381 -0.035512533 0.14205013 0.4794192 -0.053268798 -0.124293864 -0.053268798
-0.30185652 0.19531894 -0.266344 -0.035512533 -0.28410026 0.035512533 -0.053268798 0.0

sequential_1/dense_3/MatMul i1 [160, 42] scale=0.018353626 zero_point=0
00000000: 0205 ed0c ee03 f000 4dff f8fe f6ff f7fe
00000010: fbfe fd00 f800 fbf8 01ff 0002 fe04 0206
00000020: 01f9 02ff 0500 0402 0500 fa05 14f7 0ffe
00000030: 20ff 9802 0100 ff01 0300 0601 0002 ff00
00000040: 0300 02ff fd02 0200 04fd 05ff 0500 05fe
00000050: 0301 fffd 0005 0404 0802 0402 fc04 f5fa
00000060: 0304 0402 0802 fbfc fdfb f8c1 f70f fe00
00000070: ff00 0405 fe03 16f8 0a04 0805 f706 01ff
00000080: f508 01fe 04e3 05d8 fc12 fd18 021f 0617
00000090: 0214 fd14 f00e f61d 02fc fc39 fd2b fc22
000000a0: 04ef 012a fe18 ff09 09f8 0211 fe0e fed2
000000b0: ffca 0304 0002 fe07 ff06 fdfc 020a 0008
000000c0: 000b fdfa 0308 010f 010e fff1 030e fc11
000000d0: 0413 f903 f1fb f804 0106 020d f30a fa0b
000000e0: 070b 1810 fe18 010c 0af6 fffc fc42 0413
000000f0: 12f3 0c00 f949 0204 00ed 01e0 00fc 0903
0.036707252 0.09176813 -0.34871888 0.22024351 -0.33036527 0.05506088 -0.29365802 0.0
1.4132292 -0.018353626 -0.14682901 -0.036707252 -0.18353626 -0.018353626 -0.16518264 -0.036707252
-0.09176813 -0.036707252 -0.05506088 0.0 -0.14682901 0.0 -0.09176813 -0.14682901
0.018353626 -0.018353626 0.0 0.036707252 -0.036707252 0.073414505 0.036707252 0.11012176
0.018353626 -0.12847538 0.036707252 -0.018353626 0.09176813 0.0 0.073414505 0.036707252
0.09176813 0.0 -0.11012176 0.09176813 0.36707252 -0.16518264 0.27530438 -0.036707252
0.58731604 -0.018353626 -1.9087771 0.036707252 0.018353626 0.0 -0.018353626 0.018353626
0.05506088 0.0 0.11012176 0.018353626 0.0 0.036707252 -0.018353626 0.0
0.05506088 0.0 0.036707252 -0.018353626 -0.05506088 0.036707252 0.036707252 0.0
0.073414505 -0.05506088 0.09176813 -0.018353626 0.09176813 0.0 0.09176813 -0.036707252
0.05506088 0.018353626 -0.018353626 -0.05506088 0.0 0.09176813 0.073414505 0.073414505
0.14682901 0.036707252 0.073414505 0.036707252 -0.073414505 0.073414505 -0.20188989 -0.11012176
0.05506088 0.073414505 0.073414505 0.036707252 0.14682901 0.036707252 -0.09176813 -0.073414505
-0.05506088 -0.09176813 -0.14682901 -1.1562785 -0.16518264 0.27530438 -0.036707252 0.0
-0.018353626 0.0 0.073414505 0.09176813 -0.036707252 0.05506088 0.40377977 -0.14682901
0.18353626 0.073414505 0.14682901 0.09176813 -0.16518264 0.11012176 0.018353626 -0.018353626
-0.20188989 0.14682901 0.018353626 -0.036707252 0.073414505 -0.5322552 0.09176813 -0.73414505
-0.073414505 0.33036527 -0.05506088 0.44048703 0.036707252 0.5689624 0.11012176 0.4221334
0.036707252 0.36707252 -0.05506088 0.36707252 -0.29365802 0.25695077 -0.18353626 0.5322552
0.036707252 -0.073414505 -0.073414505 1.0461566 -0.05506088 0.7892059 -0.073414505 0.6240233
0.073414505 -0.31201166 0.018353626 0.7708523 -0.036707252 0.44048703 -0.018353626 0.16518264
0.16518264 -0.14682901 0.036707252 0.31201166 -0.036707252 0.25695077 -0.036707252 -0.8442668
-0.018353626 -0.9910958 0.05506088 0.073414505 0.0 0.036707252 -0.036707252 0.12847538
-0.018353626 0.11012176 -0.05506088 -0.073414505 0.036707252 0.18353626 0.0 0.14682901
0.0 0.20188989 -0.05506088 -0.11012176 0.05506088 0.14682901 0.018353626 0.27530438
0.018353626 0.25695077 -0.018353626 -0.27530438 0.05506088 0.25695077 -0.073414505 0.31201166
0.073414505 0.34871888 -0.12847538 0.05506088 -0.27530438 -0.09176813 -0.14682901 0.073414505
0.018353626 0.11012176 0.036707252 0.23859714 -0.23859714 0.18353626 -0.11012176 0.20188989
0.12847538 0.20188989 0.44048703 0.29365802 -0.036707252 0.44048703 0.018353626 0.22024351
0.18353626 -0.18353626 -0.018353626 -0.073414505 -0.073414505 1.2113394 0.073414505 0.34871888
0.33036527 -0.23859714 0.22024351 0.0 -0.12847538 1.3398147 0.036707252 0.073414505
0.0 -0.34871888 0.018353626 -0.58731604 0.0 -0.073414505 0.16518264 0.05506088
